…
    "# The following is required to resolve a conflicting/duplicate libraries issue, but may not be necessary on all systems:\n",
    "os.environ['KMP_DUPLICATE_LIB_OK']='True'"
   ]
  },
  {
   "cell_type": "code",
   "execution_count": 25,
   "metadata": {},
   "outputs": [
    {
     "name": "stdout",
     "output_type": "stream",
     "text": [
      "Model: \"model_10\"\n",
      "_________________________________________________________________\n",
      "Layer (type)                 Output Shape              Param #   \n",
      "=================================================================\n",
      "input_10 (InputLayer)        (None, 128)               0         \n",
      "_________________________________________________________________\n",
      "dense_7 (Dense)              (None, 524288)            67633152  \n",
      "_________________________________________________________________\n",
      "leaky_re_lu_28 (LeakyReLU)   (None, 524288)            0         \n",
      "_________________________________________________________________\n",
      "reshape_4 (Reshape)          (None, 64, 64, 128)       0         \n",
      "_________________________________________________________________\n",
      "conv2d_25 (Conv2D)           (None, 64, 64, 256)       819456    \n",
      "_________________________________________________________________\n",
      "leaky_re_lu_29 (LeakyReLU)   (None, 64, 64, 256)       0         \n",
      "_________________________________________________________________\n",
      "conv2d_transpose_4 (Conv2DTr (None, 128, 128, 256)     1048832   \n",
      "_________________________________________________________________\n",
      "leaky_re_lu_30 (LeakyReLU)   (None, 128, 128, 256)     0         \n",
      "_________________________________________________________________\n",
      "conv2d_26 (Conv2D)           (None, 128, 128, 256)     1638656   \n",
      "_________________________________________________________________\n",
      "leaky_re_lu_31 (LeakyReLU)   (None, 128, 128, 256)     0         \n",
      "_________________________________________________________________\n",
      "conv2d_27 (Conv2D)           (None, 128, 128, 256)     1638656   \n",
      "_________________________________________________________________\n",
      "leaky_re_lu_32 (LeakyReLU)   (None, 128, 128, 256)     0         \n",
      "_________________________________________________________________\n",
      "conv2d_28 (Conv2D)           (None, 128, 128, 1)       12545     \n",
      "=================================================================\n",
      "Total params: 72,791,297\n",
      "Trainable params: 72,791,297\n",
      "Non-trainable params: 0\n",
      "_________________________________________________________________\n"
     ]
    }
   ],
   "source": [
    "# Image parameters are set. In this case, the program is set to accept 128 x 128 pixel images. Larger images are possible,\n",
…
    "The discriminator proper is instantiated. The input will be one real image and one generated image, and the descriminator\n",
    "predicts which one is real and which one is not. A boolean value is given based on whether the decision was correct."
   ]
  },
  {
   "cell_type": "code",
   "execution_count": 28,
   "metadata": {},
   "outputs": [
    {
     "name": "stdout",
     "output_type": "stream",
     "text": [
      "Model: \"model_11\"\n",
      "_________________________________________________________________\n",
      "Layer (type)                 Output Shape              Param #   \n",
      "=================================================================\n",
      "input_11 (InputLayer)        (None, 128, 128, 1)       0         \n",
      "_________________________________________________________________\n",
      "conv2d_29 (Conv2D)           (None, 126, 126, 128)     1280      \n",
      "_________________________________________________________________\n",
      "leaky_re_lu_33 (LeakyReLU)   (None, 126, 126, 128)     0         \n",
      "_________________________________________________________________\n",
      "conv2d_30 (Conv2D)           (None, 62, 62, 128)       262272    \n",
      "_________________________________________________________________\n",
      "leaky_re_lu_34 (LeakyReLU)   (None, 62, 62, 128)       0         \n",
      "_________________________________________________________________\n",
      "conv2d_31 (Conv2D)           (None, 30, 30, 128)       262272    \n",
      "_________________________________________________________________\n",
      "leaky_re_lu_35 (LeakyReLU)   (None, 30, 30, 128)       0         \n",
      "_________________________________________________________________\n",
      "conv2d_32 (Conv2D)           (None, 14, 14, 128)       262272    \n",
      "_________________________________________________________________\n",
      "leaky_re_lu_36 (LeakyReLU)   (None, 14, 14, 128)       0         \n",
      "_________________________________________________________________\n",
      "flatten_4 (Flatten)          (None, 25088)             0         \n",
      "_________________________________________________________________\n",
      "dropout_4 (Dropout)          (None, 25088)             0         \n",
      "_________________________________________________________________\n",
      "dense_8 (Dense)              (None, 1)                 25089     \n",
      "=================================================================\n",
      "Total params: 813,185\n",
      "Trainable params: 813,185\n",
      "Non-trainable params: 0\n",
      "_________________________________________________________________\n"
     ]
    }
   ],
   "source": [
    "discriminator = keras.models.Model(discriminator_input, x)\n",
    "discriminator.summary()"
   ]
…
